project_code/technical_analysis/models/mlp_lr-0.0001_batch_size-32_epochs-1000.pth (torch, 4645 bytes, 6 tensors)

mlp.0.weight f8 [10, 15]
0	0xbfbed67b75e76df3	-0.12046023968235157
1	0x3fa9d10729495ec2	0.05042288187968104
2	0xbfc2c3962f0060a3	-0.14659383101457477
3	0xbfdae4ef9a5e358f	-0.4202231414318129
4	0x3fcfc8072ddd5e2b	0.24829187144745055
5	0x3fe29af5b4f045d0	0.5814159902531006
6	0x3fbcda65c22e40ce	0.11270748129595917
7	0x3f9924418e6ac41f	0.02455236846680375
8	0x3fda7e5caa7becd4	0.41396252297245195
9	0x3faed44a275162fc	0.06021339158968961
10	0xbfb7a10a431a1c6a	-0.09230102670891119
11	0x3fc13c2635747a59	0.13464810953242326
12	0xbfb1af6eac6485b0	-0.06908313473515793
13	0x3fd17f05255257fb	0.2733776916951453
14	0x3fd30fb7e7aac04e	0.29783437370042953
15	0x3fc6c72160000000	0.17795197665691376
16	0xbfa63b7c80000000	-0.04342259466648102
17	0xbfa227d6a0000000	-0.03546019271016121
18	0xbfbb6c05c0000000	-0.10711704194545746
19	0xbfcbaf3140000000	-0.21628394722938538
20	0xbfc68cb4c0000000	-0.1761690080165863
21	0x3f7f4a0a20000000	0.007638968992978334
22	0x3f9cee7bc0000000	0.02825349196791649
23	0x3fa9d67340000000	0.05046425014734268
24	0xbfb2a94120000000	-0.0728951171040535
25	0x3fa4cd3d40000000	0.040628351271152496
26	0x3fbdd20f40000000	0.11648650467395782
27	0x3f7fc51a80000000	0.0077563319355249405
28	0x3fba606940000000	0.10303361713886261
29	0xbfb5065e20000000	-0.08212841302156448
30	0x3fd6806989ac2b55	0.3515876621683465
31	0xbfa05f0365897799	-0.03197489370789625
32	0x3fc23f8db1961bc3	0.14256449862679518
33	0x3fe081fd4d3f2f5a	0.515867853996933
34	0xbf86b90522aaa143	-0.01109508525890191
35	0xbfdea9f2b0f51a2a	-0.47912280350684233
36	0x3faf9f7556066580	0.06176344561681457
37	0x3fb7a382a3904669	0.0923387193036206
38	0xbfd59654649b85bc	-0.3373003942961892
39	0x3fc5cbdfe0e238fe	0.17028425675056974
40	0xbfbb54d862c065bb	-0.10676338587690896
41	0x3fd0915293b6bb82	0.2588697855489316
42	0xbfa50912c9368da1	-0.041084849416871856
43	0x3fc3e0bb0897d342	0.15529573363860477
44	0x3fb7d5eb97011de0	0.09310791432027754
45	0x3fb0d2e9a0000000	0.06571827083826065
46	0xbfb31bc380000000	-0.07464239001274109
47	0xbfcf375960000000	-0.2438766211271286
48	0x3fb5712ce0000000	0.0837581679224968
49	0xbfbdab7800000000	-0.11589765548706055
50	0x3f956fcaa0000000	0.02093426324427128
51	0xbfb43f9000000000	-0.07909488677978516
52	0x3fcfd91420000000	0.2488122135400772
53	0x3f4735ac40000000	0.0007083025993779302
54	0x3fb24e41e0000000	0.07150661200284958
55	0x3fcc10edc0000000	0.2192666232585907
56	0xbfcf302a80000000	-0.2436574101448059
57	0xbfc158fc80000000	-0.13552814722061157
58	0x3fb1f05240000000	0.07007326185703278
59	0xbfca500480000000	-0.20556694269180298
60	0xbf9bce83af09cdc4	-0.027154977377404924
61	0x3fcb7a087b88d1a1	0.2146616557307768
62	0x3fc8daa38f35d3de	0.1941723298329227
63	0x3fb51175f5793825	0.08229768031125724
64	0xbfc23b7522b0e7b9	-0.14243950075052483
65	0xbfc83d5a0419fb74	-0.18937230301159114
66	0x3fd5f9d13282c4a7	0.3433726304311428
67	0xbfc92c0b7e055fe2	-0.1966566434227835
68	0xbfd36b9f4ce1c6b8	-0.303443741874712
69	0xbfb37eb94e221b13	-0.07615240247296766
70	0xbfbf1a849e429be6	-0.12149838317655756
71	0xbfc200a89ecff32d	-0.1406451011133866
72	0x3fc95fb7147c82c2	0.19823349476157232
73	0x3f8b742d2d001f7c	0.013405182777219464
74	0xbfc101f39fae13b1	-0.1328720597922746
75	0x3fc3cb9e98a720ad	0.1546514745116431
76	0x3fd203a6ca72ddc2	0.2814728714979219
77	0xbf75ff8070b09542	-0.005370618552693886
78	0x3fdfd31ebce1cc7e	0.4972607464362183
79	0x3fc0ae9d20f5edac	0.13032878980071183
80	0xbfdbf7c221b05062	-0.43699696817316724
81	0x3fdcf45f9752b723	0.4524153688206402
82	0x3fb15700c4e242c6	0.06773381048902669
83	0xbfb1008b17d13b31	-0.06641454059102327
84	0xbfc195f9a830a659	-0.13738938057331287
85	0x3fb31482ec73bf45	0.07453172943837412
86	0xbfc8faf5f7e6d485	-0.1951587162454055
87	0xbfd3fbf021e3892d	-0.3122520762391499
88	0xbfd5cd37241f6211	-0.3406503536948842
89	0xbfb4b2e249f3541d	-0.08085455232078727
90	0xbfd09a9b4e9fc0c9	-0.25943644216659983
91	0x3fb25d8a2f6290f1	0.07173980385647717
92	0x3f828a3b06ee2ae0	0.009052716397282834
93	0x3fbf4376f19feac6	0.12212317847289986
94	0xbfcaa8f0b04edbf9	-0.20828064545432293
95	0x3f86efd868de9142	0.011199656200752476
96	0x3fcf1ffddf2a54f8	0.2431638087915997
97	0xbfcd5dd1ffef2802	-0.22942566868579212
98	0xbfcbd61eef6fa736	-0.21747194949358012
99	0x3fca958c52783724	0.2076888468440582
100	0xbfc0b2f2748b8767	-0.13046103182483224
101	0x3fc6776ec6390531	0.17551979712337976
102	0x3fd499f295b5d853	0.3218962156310045
103	0x3fbff53eac30de83	0.12483588889960555
104	0x3fba94acaafb8dc7	0.10383109259014765
105	0x3fc77a2495b4ca42	0.18341500577806086
106	0xbfc4f0a1020928ca	-0.16359341239360098
107	0x3fbbb7d8cd600d54	0.10827403081934978
108	0xbfce67cfa37de78e	-0.2375430630016208
109	0x3fc1bd7b8d85a8e6	0.13859505090960694
110	0x3fe2cfa95b64678c	0.5878493103984836
111	0xbf806d1079bbe7eb	-0.00802052375319203
112	0x3fbca5099b9ede91	0.11189327287035612
113	0x3fdfa0ca7e377741	0.49418890310140645
114	0xbfae212ce906dbb1	-0.05884685844960503
115	0xbfc2c98abdd385a1	-0.14677557247982256
116	0x3fd19ca05fd3f474	0.27518472059438825
117	0xbfc338895b75fc34	-0.15016285863745937
118	0xbf9c47ebb241f68f	-0.02761810565470185
119	0x3f84f34393f84b02	0.010229614213164154
120	0x3fda0da5718b8c99	0.40708290184392976
121	0x3fbe1372e7aa0a28	0.11748426586022076
122	0x3fd29ab0d0a01207	0.2906915700298502
123	0xbfb7fdd5fa99a595	-0.09371697776955153
124	0x3fdb1dd9f9444e96	0.42369698851073545
125	0x3fe31a3c521bdc37	0.5969525912941042
126	0xbf925d82007aff52	-0.017934829024624684
127	0x3fc7ea8685d55217	0.18684464964702904
128	0x3fdc46ffd830ed0d	0.4418334590188387
129	0x3f8a22cf2c7b8f4e	0.01276170591831485
130	0x3fcf4ed625722b52	0.2445933993188541
131	0x3fd55606c0fab84d	0.3333756336750227
132	0x3fc02f7fae598569	0.12644954693954993
133	0x3fa9e35927dc823a	0.05056265460575955
134	0xbf616bed6067d4b6	-0.002126659036771085
135	0x3fbdbb1fd70593cb	0.11613654136233646
136	0xbfb07f5ba3c72f8e	-0.06444332836616537
137	0x3fd3f1be06d5c281	0.3116297785518683
138	0x3fd7eb81e65608fa	0.37374923223264
139	0x3fc3cd599670af8c	0.15470428319656226
140	0xbfdfb6353b8842ee	-0.49549609006594053
141	0x3fd1dcf0e5e01c59	0.27911016892216406
142	0x3fa0d8f1260cb881	0.03290513600801238
143	0xbfcdf335c78447dd	-0.2339846824839346
144	0x3fb41f4ef1cc34be	0.0786027279211394
145	0x3fc0fc551630a476	0.1327005728101402
146	0xbfcdfeadf97e7627	-0.234334704230535
147	0x3fb9ec740f721f40	0.10126424195379702
148	0xbf9938bf538898e1	-0.024630536530957484
149	0x3fc46a466f23f857	0.15949325968535064

mlp.0.bias f8 [10]
0	0x3fbbffe18cda5734	0.10937318505088173
1	0xbfcfe2f6c0000000	-0.24911388754844666
2	0xbfbfef1256b51f42	-0.1247416936577084
3	0xbfb074f4e0000000	-0.06428461521863937
4	0x3fd29b9d12e60384	0.2907478985362604
5	0x3fa5ddf4e121a537	0.0427090191668164
6	0xbfca9425cc854223	-0.2076461075435115
7	0xbf7e993e96b359a0	-0.007470364081390818
8	0x3fccd7b34fa9374a	0.22533265485474835
9	0xbfc0b5906d3e07bf	-0.130540898648233

mlp.2.weight f8 [10, 10]
0	0x3fb3b596e0000000	0.07698958367109299
1	0xbfd0f00b00000000	-0.2646510601043701
2	0xbfd2ce3740000000	-0.29383641481399536
3	0xbfc8568280000000	-0.19014006853103638
4	0x3f82fedf20000000	0.009275191463530064
5	0xbfc6a90e60000000	-0.1770341843366623
6	0x3fbf671400000000	0.12266659736633301
7	0xbfc1ec7b60000000	-0.14002935588359833
8	0xbfd2075640000000	-0.2816978096961975
9	0x3fb89cee00000000	0.09614455699920654
10	0x3fe4652cf0b827dd	0.6373505307722059
11	0xbfa4fb5c60000000	-0.04098023101687431
12	0xbfeea8fb4c50184b	-0.9581276407705074
13	0x3f8248d7c0000000	0.008927999064326286
14	0xbfc89518b29c8b00	-0.19205006333603336
15	0x3fa5f096c621f9ed	0.042851173101542496
16	0xbfefde0d2affd3e7	-0.9958558883505447
17	0x3fdd313ae6382596	0.456129765342291
18	0x3fd051df35d32301	0.25499706512759707
19	0xbfec99a9d71dfc56	-0.893757743979118
20	0x3fa144a1582e425e	0.03372673226761401
21	0xbfc64ac240000000	-0.17415645718574524
22	0x3fe20bb6643ec42b	0.5639297445214927
23	0x3fc9be6760000000	0.2011231631040573
24	0x3fb17309a94b3e48	0.06816158660080263
25	0x3fca18bac2c91eeb	0.20387968550698274
26	0x3ff0586bafe6e7de	1.0215870734377783
27	0xbfbe5f315db0596c	-0.11864002740217011
28	0x3f80b2c39b81f356	0.008153465445724411
29	0x3fa373c15b673b74	0.03799251786005345
30	0xbfe28510b7efd4c1	-0.5787433235660943
31	0x3fb952cce0000000	0.09891968220472336
32	0x3fe938a7dfb61225	0.7881659860000282
33	0xbfccedb740000000	-0.22600451111793518
34	0x3fdc50258ae39b3a	0.44239176333796915
35	0x3fd5eb640800f794	0.34249211103075905
36	0x3fe7c30cc594f3cf	0.742559801008264
37	0xbfc663246f8ad389	-0.1749005837097253
38	0x3fc3769f3e1f09dc	0.15205755742324711
39	0x3ff0ae318f043824	1.0425277315694155
40	0x3f96868320000000	0.021997498348355293
41	0x3fc6c153a0000000	0.17777486145496368
42	0x3fcfe06600000000	0.24903559684753418
43	0xbf95cd84e0000000	-0.021291805431246758
44	0xbfc7196ac0000000	-0.18046316504478455
45	0x3fc84ff020000000	0.18993951380252838
46	0xbfd38b7500000000	-0.3053867816925049
47	0xbfd0d3b200000000	-0.2629208564758301
48	0xbfc677f920000000	-0.17553628981113434
49	0x3fc8069a00000000	0.18770146369934082
50	0x3fdd5127c89d6bfb	0.45807833281804705
51	0x3fd1440220000000	0.2697758972644806
52	0xbfe2ba533f7dc37c	-0.585244773870826
53	0xbfa66ad280000000	-0.04378373920917511
54	0xbfe00691f25da87e	-0.5008020147045185
55	0xbfd82342ba2f9e2b	-0.3771521394942023
56	0xbfe4d850326eb9fb	-0.6514054284105549
57	0x3fd830dabfa184cf	0.3779818412204578
58	0x3fd9892790aacd3c	0.39899624946265866
59	0xbfe51c808272fe71	-0.6597292468868102
60	0xbfd55d02d517b37d	-0.3338019448263408
61	0x3f81559fc0000000	0.008464096114039421
62	0x3fef6433225f71a4	0.9809814139694493
63	0xbfc6151860000000	-0.1725187748670578
64	0x3fdb84da1504b226	0.42998363545010176
65	0x3fc8ce1ddf03836f	0.1937901820120049
66	0x3fef2d4c5a8e1561	0.9742795723583805
67	0xbfd0a82b1acef982	-0.26026418321625766
68	0xbf7412ccf43f622d	-0.004900742151186449
69	0x3febc39af7e2198f	0.867627605578308
70	0xbfdd6de43e23cb2d	-0.45983224933950134
71	0xbfc678af80000000	-0.17555803060531616
72	0x3fe91f179447b434	0.7850454231353354
73	0x3fcb2df460000000	0.21233992278575897
74	0x3fc0f3eb6a791f3c	0.13244383524783554
75	0x3fe0835d050a5559	0.5160355661816239
76	0x3fedac7e31666341	0.9273062672465145
77	0xbfd46705d02b6ff8	-0.3187880070597653
78	0x3fb47bd450ca43d3	0.08001448604979026
79	0x3fe8ccec7145b3b1	0.775015088305386
80	0xbfd325e200000000	-0.29918718338012695
81	0x3fcbdbd720000000	0.2176464945077896
82	0xbfc6d18e40000000	-0.1782701313495636
83	0xbf85fd9b00000000	-0.010737620294094086
84	0x3fc79ff520000000	0.18456901609897614
85	0xbfa2d55640000000	-0.03678388148546219
86	0x3fc7c61760000000	0.18573276698589325
87	0x3fb2ceb4c0000000	0.07346658408641815
88	0xbfc05c6ee0000000	-0.12782083451747894
89	0x3fa83e7800000000	0.04735159873962402
90	0xbfd3fb0ca0000000	-0.31219783425331116
91	0xbfc8df14e0000000	-0.19430790841579437
92	0xbf80442080000000	-0.00794244185090065
93	0x3fb08c8360000000	0.06464406102895737
94	0xbfca0f8c20000000	-0.2035994678735733
95	0x3fc57c9fc0000000	0.16786572337150574
96	0xbfc240be00000000	-0.14260077476501465
97	0x3fcf902dc0000000	0.24658748507499695
98	0xbfd0792480000000	-0.2573939561843872
99	0xbfb558ecc0000000	-0.08338813483715057

mlp.2.bias f8 [10]
0	0xbfc6464600000000	-0.17401957511901855
1	0x3fd1f51f1c4a25ec	0.28058603060398357
2	0xbfb1da48c46b3519	-0.06973700328235956
3	0x3fa7fbc0dd20a804	0.04684260081587868
4	0xbfd13a07e0000000	-0.2691669166088104
5	0x3fa5dc49eb5b832a	0.042696294765624934
6	0x3fce5eb3bfb49077	0.23726508007633004
7	0x3fbedbd1ed258757	0.12054168739044023
8	0xbfccab6680000000	-0.22398072481155396
9	0xbfb4487b60000000	-0.07923098653554916

mlp.4.weight f8 [2, 10]
0	0xbf906b0340000000	-0.016033221036195755
1	0x3fe60ab9a9d8c21f	0.6888092343634219
2	0xbfeaac91a07fab11	-0.833565534090072
3	0xbff045177a8d3590	-1.0168680941745585
4	0x3fc76b77e0000000	0.1829671710729599
5	0x3fe5a78606523a77	0.6766996501408603
6	0xbfe88e6c26efaf15	-0.7673855553125316
7	0xbfeb37f0d5c15134	-0.8505787062554533
8	0xbfc8e04bc0000000	-0.19434496760368347
9	0xbfba8576e0000000	-0.10359900444746017
10	0xbfd11302a0000000	-0.26678529381752014
11	0xbfd0baf5bbb1842b	-0.2614111264175018
12	0x3fec22de307faafb	0.8792563388099944
13	0x3fe7f38e9d1a6b02	0.7484810894414695
14	0xbfceca8a60000000	-0.2405560463666916
15	0xbfeb123f96523a6f	-0.8459775863610285
16	0x3fe45416166faf16	0.6352644384582813
17	0x3ff49fd152e0a879	1.289017986050139
18	0xbfca40d4a0000000	-0.20510347187519073
19	0x3fd359efc0000000	0.3023642897605896

mlp.4.bias f8 [2]
0	0xbfb927b3e62654ef	-0.09826206559076288
1	0xbfc8ca6fbcecd56e	-0.19367787098751016
