project_code/technical_analysis/models/mlp_lr-0.0001_batch_size-32_epochs-6000.pth (torch, 4645 bytes, 6 tensors)

mlp.0.weight f8 [10, 15]
0	0x3fb6b966a25ad15f	0.08876649345149222
1	0xbfb4614705bb79f8	-0.0796093358035036
2	0x3f9b8b136b93588d	0.026897719803706855
3	0x3fe100945393696e	0.5313207275715237
4	0x3fa711776acd0ec5	0.04505513361666894
5	0x3fc757ed4f6c3bdd	0.18237081888261644
6	0x3fd2780a8de9723c	0.28857673510154647
7	0x3fd07fa427830069	0.2577906022888841
8	0x3fbba15c75f67282	0.10793092613170965
9	0x3fc0bf35d288b588	0.13083527355176394
10	0x3fd7e53e090f5ac2	0.3733668411709169
11	0x3fcd3352b1824efa	0.2281287543051958
12	0xbfd1496417b98020	-0.2701044303594262
13	0xbf67de2110a3daf5	-0.002913536624983388
14	0xbfb17c11ce8e4657	-0.06829940121522192
15	0x3f6e938ec0000000	0.003732470329850912
16	0x3fa1f79020000000	0.03509188070893288
17	0xbfbb11fa40000000	-0.10574306547641754
18	0xbfb226f4e0000000	-0.07090692967176437
19	0xbf9f1457a0000000	-0.03035103715956211
20	0x3fae447f00000000	0.05911633372306824
21	0xbf9adfed60000000	-0.026244839653372765
22	0x3fd0059540000000	0.2503407597541809
23	0xbfc5eef560000000	-0.17135493457317352
24	0x3f82120d80000000	0.008823495358228683
25	0x3f8879cb00000000	0.011951051652431488
26	0xbfc5a4e7e0000000	-0.1690950244665146
27	0x3fc79f8600000000	0.1845557689666748
28	0xbfca029a00000000	-0.20320439338684082
29	0x3fb2b981c0000000	0.0731431096792221
30	0xbfb89cd93c6504f2	-0.09614331936338141
31	0xbfc72794c49994c0	-0.18089542007070314
32	0x3f9d288e5ac5b72a	0.028475021639159305
33	0xbfdf23cb0d735301	-0.4865596419670482
34	0x3fd38c7d3232377c	0.30544977094620385
35	0x3fddb2923a367a27	0.4640241211399449
36	0xbf9ba0e1ee78fa12	-0.02698090570469886
37	0xbfb1742379136fb7	-0.06817838388400231
38	0x3fd6d027f64314f3	0.3564548401739806
39	0xbfbf6723d389ba5f	-0.12266754068853335
40	0xbfd0f43db6baaed0	-0.26490729183818207
41	0x3fbd4e9bc86ab6ae	0.11448072092999936
42	0xbfc08ecd892d44e5	-0.12935799787604832
43	0xbfb253cb82c9f948	-0.07159110968675464
44	0xbfbbe482b3755b00	-0.10895554429349019
45	0x3fdc92b66c8689fc	0.4464546260661846
46	0x3fd08915f379e0c2	0.2583670499511862
47	0x3fd8298e46237f3d	0.37753636216620007
48	0x3fe2050e22d89330	0.5631170921884401
49	0x3fdfab70fd37bcf9	0.49483895042699505
50	0x3fbcec0a13525683	0.1129766747638659
51	0x3fc684ca13825048	0.17592740967359277
52	0x3fe1e0e48651ba7c	0.5587027190611731
53	0x3fdfd2e9433209b0	0.49724799692207977
54	0x3fd2588180b2c72b	0.2866519696063842
55	0x3fde9b7b1c22db1b	0.47823980090781654
56	0x3fd4af8bee108335	0.3232145142410901
57	0x3fcff61ec55fc205	0.2496984924068927
58	0x3fbf314b08d1720b	0.12184590306555536
59	0xbfb1f7217f205a6b	-0.07017716745063189
60	0x3fbd598191f6b075	0.11464700521054445
61	0xbfa75508707228e7	-0.04557062504416525
62	0xbfb9a3830ebefd1a	-0.10015124425898528
63	0xbfc92b9a8e85757c	-0.19664318045662899
64	0x3fc0d0b14d9dedb9	0.13136879243744007
65	0x3fdae0dc7eb17702	0.4199744450796602
66	0xbfd266587a29650a	-0.287496680544408
67	0xbfbb55819aa23fd1	-0.10677347207297251
68	0x3fdb0350d4c2dfc6	0.42207737710441184
69	0xbfa1ced4a5c0818c	-0.034781117661853406
70	0xbf83b07cca456a43	-0.009613966868234352
71	0x3fab8be6d2b17e24	0.053801739901924855
72	0xbfd10acfa6495d2d	-0.26628485907481797
73	0xbfb2837f7b842fa7	-0.07231899991546574
74	0x3fa0e9222faf9e8d	0.03302866775612499
75	0x3fc68e9d3ecf4547	0.17622724120023234
76	0xbfa09e9c81b4aceb	-0.03246010859796818
77	0xbfbc5afec7e3586f	-0.11076347713546551
78	0xbfab9d3c6bf0e842	-0.053933990646740884
79	0x3fd21f70f36eec79	0.28316901943953315
80	0x3fc1167184701bab	0.13349741903968257
81	0xbfc93389b10eb2d1	-0.19688531060582773
82	0xbfdbdebfb7cc94d6	-0.4354705138124023
83	0xbfc7b2349939b65c	-0.18512589914046174
84	0x3fc147b1d9aae3e8	0.1350004494504724
85	0x3fa5c6addfd3a430	0.042531426975820685
86	0x3fd40d1f5f0c2aea	0.31330093652711233
87	0x3fe44f1b58cf1885	0.6346565947103647
88	0x3feb149df741b844	0.8462667302353641
89	0x3feb896f38cb6b73	0.8605266675252622
90	0x3f6abe3c2bc4540d	0.0032645392622137116
91	0xbfcdaa1962fb4fed	-0.23175351460542917
92	0xbfc70cd56997c1b8	-0.18007915168665334
93	0xbfd92a0ef36def5e	-0.39319204113393436
94	0x3fb40e9674258e0a	0.0783475907861019
95	0x3fe47600c920f94d	0.6394046715065912
96	0xbf8c59e2464e5f9a	-0.013843314905713378
97	0x3fbb9f77d0b9f057	0.10790203901155003
98	0x3fdddaa0346824e3	0.4664688598428041
99	0xbfc20b015ee39c93	-0.14096085675484868
100	0x3fc026400bdec2ed	0.1261673028907561
101	0xbfaa51f356e3f641	-0.05140648303675422
102	0xbfc2dc6b84fa8c78	-0.1473516845045173
103	0xbfab70c002fbd9db	-0.053594589580757655
104	0xbfc2afec366f3b14	-0.1459937349122461
105	0xbfd03ffbf66ef847	-0.25390528741616375
106	0x3fc5f4554c462162	0.1715189573699361
107	0x3fb23753b9ea024f	0.0711567238704529
108	0xbfbebc2154043634	-0.1200581388586322
109	0x3fcfdb5e7ef1ede9	0.24888211439598187
110	0x3fe5644019b66581	0.6684875967213629
111	0xbfc7ab2e3bbf7693	-0.18491151730897978
112	0xbfa2aece2cc32e08	-0.03648990913788103
113	0x3fd57bc317f3db15	0.3356788381492362
114	0xbf9953a1bd36cae5	-0.024733092473705382
115	0xbfa200faf604d56d	-0.0351637292209642
116	0x3fc3c7472aa33ed8	0.15451898176114898
117	0xbfd13ab7087f9951	-0.26920867757725825
118	0xbfd5b5fe08ee6af6	-0.33923292991828136
119	0x3fb74cc9ecf8c961	0.09101545367665188
120	0x3fc7b6a4a0000000	0.1852613240480423
121	0x3fa384ed60000000	0.03812352940440178
122	0x3fba4ae0c0000000	0.10270504653453827
123	0xbfc9403040000000	-0.19727137684822083
124	0xbfc9ebc6e0000000	-0.2025078386068344
125	0xbfc2fe2780000000	-0.14838117361068726
126	0xbfab3a28e0000000	-0.0531780980527401
127	0xbfc984eb40000000	-0.19936886429786682
128	0xbfc0a57d60000000	-0.13005034625530243
129	0x3f8dfdb8a0000000	0.01464409101754427
130	0xbf8391e1a0000000	-0.009555590339004993
131	0xbfbd6009e0000000	-0.11474668234586716
132	0xbfbcbc69c0000000	-0.112249955534935
133	0x3fca223840000000	0.20416930317878723
134	0x3fcc6878a0000000	0.22193820774555206
135	0xbfb30cc7c864c32f	-0.07441376345083194
136	0x3fb2a07d0325e64d	0.07276135756355835
137	0x3fb13dd14c63c7e4	0.0673495112894496
138	0xbfe34c3f12dbca67	-0.6030574196177668
139	0xbfdddfb88a92dc1d	-0.4667798379190929
140	0x3fc61bfb7cf4a5ed	0.17272895432806426
141	0xbfa26eb2232338ee	-0.03600079230237606
142	0xbfafbec32b09dda4	-0.06200227642414838
143	0x3fd204fc9308fe09	0.28155435904406595
144	0x3fd677e89992de4f	0.3510686397307596
145	0x3fd620b2b71212ac	0.3457457340048602
146	0xbfd2fc88e1a52586	-0.29666349445013684
147	0xbfc2ee5d36ce79de	-0.14789929557896547
148	0x3faf4c36b9ef0df7	0.0611283399553279
149	0xbfa6c3e8ec252f67	-0.0444634235633135

mlp.0.bias f8 [10]
0	0x3fd2eaf45cdb51ef	0.29559048717535935
1	0xbfcc094e00000000	-0.21903395652770996
2	0x3fd0b4d94a000dec	0.2610381338747334
3	0x3fd2ca1db972f0ac	0.29358618841412
4	0x3fb9341f2eb0c0bc	0.09845156564620344
5	0xbfc5248bb4075ad5	-0.1651777867361576
6	0x3fbc2ed8c1e56d6f	0.11008982404512378
7	0xbfcae98843871c3c	-0.21025183961157434
8	0xbfcf7be5e0000000	-0.24596856534481049
9	0x3fd3238ba77db43e	0.2990445266394238

mlp.2.weight f8 [10, 10]
0	0xbfd1b8a0bfff20cb	-0.2768937945334186
1	0xbfd16d59e0000000	-0.27229925990104675
2	0x3fe603a722e54893	0.687945907741112
3	0xbf722785ad7ce3dc	-0.004432222536530053
4	0x3fe5d5fbe59b36b5	0.6823710903642765
5	0x3fd9cabdc3d9df28	0.4029993450744649
6	0x3fee8f874a7a67f7	0.9550205664302202
7	0x3fed5c9e3a59f75c	0.9175559177090054
8	0x3fcbbf6c00000000	0.21677923202514648
9	0x3fe8db845c0f0def	0.7767965124152719
10	0x3fc20aa9248b9401	0.14095033916888158
11	0xbfd311cac0000000	-0.29796093702316284
12	0x3fe5dd6878eb4888	0.6832773553562825
13	0xbfadaa5d255a3e71	-0.05794039803469964
14	0x3fe2c396933a3bda	0.586375510743774
15	0x3fd23604aeb43bb3	0.28454701481762895
16	0x3fe690253e31cb51	0.7050958838211533
17	0x3fe9ee8b96a6ea65	0.8103692953512335
18	0xbfceff4ee0000000	-0.24216638505458832
19	0x3fe6ec305c19a7e7	0.7163316534836185
20	0x3fa21fc860000000	0.035398732870817184
21	0xbf8810a180000000	-0.011750470846891403
22	0xbfadd67120000000	-0.05827668681740761
23	0xbfa8ed4b20000000	-0.048685405403375626
24	0x3fb655fc60000000	0.08724953979253769
25	0xbfb0d14ce0000000	-0.06569366902112961
26	0xbfce19d500000000	-0.23516333103179932
27	0xbfb93d7b60000000	-0.09859438985586166
28	0x3fd2355f20000000	0.28450754284858704
29	0xbfc60abd60000000	-0.17220275104045868
30	0x3fa69c36b6534444	0.0441605660977378
31	0xbfc4530fa0000000	-0.15878482162952423
32	0x3fefd488fecbcef1	0.9946942306982846
33	0x3fc4a04e86309940	0.16114217331159786
34	0x3fe326df535274b1	0.5984951617607718
35	0x3fd2e6da58328875	0.2953401433279688
36	0x3ff2acdad6e50622	1.1672008890458376
37	0x3fe97416bc26c6e7	0.7954209971269081
38	0x3fa865e600000000	0.04765242338180542
39	0x3fee92eb81129135	0.9554345627734963
40	0xbfc5e666a0000000	-0.17109377682209015
41	0x3fcddc1880000000	0.233279287815094
42	0x3fcf6c2d00000000	0.24548876285552979
43	0xbfd1d92460000000	-0.2788783013820648
44	0xbfc603d320000000	-0.1719917207956314
45	0x3fd0bc5920000000	0.2614958584308624
46	0x3fd17eee00000000	0.27337217330932617
47	0x3fd3a45260000000	0.3069044053554535
48	0xbfc2f28160000000	-0.14802567660808563
49	0xbfb0d0cfa0000000	-0.06568620353937149
50	0x3fc560195235068d	0.1669952060129173
51	0x3fb5966440000000	0.08432604372501373
52	0xbfd0f22f80000000	-0.2647818326950073
53	0x3fabc33b7ab32469	0.05422387955474834
54	0xbfb325590a8f72eb	-0.07478863246746996
55	0xbfd1e25d9e15bb53	-0.2794412654683828
56	0xbfd36aa44a7c445d	-0.30338389657942405
57	0xbfceba4cc0ec6c32	-0.2400604192742733
58	0xbfd33fd260000000	-0.3007703721523285
59	0x3fbed24f53ba2c1c	0.1203965739643284
60	0xbfbf9d0f28155176	-0.12349028328509867
61	0x3fc2446700000000	0.14271247386932373
62	0x3feb02d761956f93	0.844096842377882
63	0xbf92367f3e1fade4	-0.017786014715893375
64	0x3fe31dd58c65ef00	0.5973918668891827
65	0x3fdadf7f81ffbea2	0.4198912400743017
66	0x3ff1dd7ce1c6fe08	1.1165741748262707
67	0x3fef0420bed0303f	0.9692538954564113
68	0xbfcf122480000000	-0.2427411675453186
69	0x3fe713b4ae0dc72d	0.7211554908264809
70	0xbfc79dff7a018810	-0.18450921494792327
71	0x3fd1bb3da0000000	0.27705326676368713
72	0xc0022e20c92ff118	-2.272523471618239
73	0x3fbf8be914241680	0.12322861425135478
74	0xc00336efd1cd2989	-2.401824606965594
75	0x3fdf985a65ffaf64	0.4936738964158762
76	0xbfe89449372cdac1	-0.7681013181343915
77	0xc005fd4ef226a434	-2.748685733608477
78	0xbfce5c4ca0000000	-0.23719175159931183
79	0xbfce5716589a9bfe	-0.23703269316067116
80	0x3fe0b9957f8a6f17	0.5226542941122457
81	0x3f3d8a4540000000	0.00045074644731357694
82	0xbfee92cf67e09fae	-0.9554211644035513
83	0x3fe09a2ec8b6579e	0.5188211364900217
84	0xbfd72f391f816ca7	-0.3622572715446019
85	0xbff6427890f29d4f	-1.3912282621402772
86	0xbfe5cf36b22c7c21	-0.6815446357685496
87	0xbfe4bf4c0845e7e4	-0.6483516847213164
88	0xbfbdc395a0000000	-0.11626563221216202
89	0xbffc98c637faeae9	-1.7872984110569468
90	0x3fb4ba748ab64aef	0.08097008120084202
91	0x3fc1576dc0000000	0.1354806125164032
92	0x3fee3196be844787	0.9435533257512682
93	0x3fb6dbc1947689e2	0.08929071306787464
94	0x3f94702e3ed915e0	0.01995918520539941
95	0x3fd7fc481d68ac1a	0.3747730529018455
96	0x3ff2a82475d3c79f	1.1660503962161568
97	0x3ff09d63b1d587c2	1.038425154365982
98	0x3fb5025a40000000	0.08206714689731598
99	0x3fe1a0f0f6f3d865	0.5508961509028835

mlp.2.bias f8 [10]
0	0x3fb05f68cf34fcc8	0.06395583208812916
1	0xbfba1d2219718b24	-0.10200703736476818
2	0xbfc122db80000000	-0.1338762640953064
3	0xbfd90b7b9e5f2959	-0.39132585969914185
4	0xbfd24b1aa0000000	-0.2858339846134186
5	0xbfd5d5af501d692b	-0.34116728614539465
6	0xbf92a18f8a084fff	-0.01819443016036359
7	0xbfb2e57c440acfd3	-0.0738141695135817
8	0x3fdc49bc5f611840	0.44200047792799424
9	0xbfad1f512a9a9c05	-0.05687955517833391

mlp.4.weight f8 [2, 10]
0	0x3febee7216e2ef1b	0.8728571364403906
1	0x3fdd9bdf6d1039af	0.4626387181350777
2	0xbfb4b1dc20000000	-0.08083892613649368
3	0x3fdeec0bdb97d3fc	0.48315712399136124
4	0x3fd1ff4d00000000	0.2812073230743408
5	0x3fc9ef830e570c48	0.20262182426640352
6	0x3fe599cc3f218653	0.6750241501833422
7	0xc009e79b53676f1d	-3.238089229196602
8	0xbff9c25e4c440f4c	-1.6099532107482046
9	0x3fd1696c469f9c21	0.27205950638603055
10	0xbfef67cf32e2eebb	-0.9814220422626571
11	0xbfe0e48c9e881d31	-0.5278990837404419
12	0x3fd3a12e20000000	0.30671265721321106
13	0xbfee027695cbe9a6	-0.9378006864274553
14	0xbfaf9d62a0000000	-0.061747629195451736
15	0xbfcb6cfcce570c3d	-0.21426353526303102
16	0xbfeb1d871f21867b	-0.8473544700647858
17	0x40060f70e1676f6e	2.757539521187872
18	0x3ff8c38f64440f48	1.5477441708216748
19	0xbfca84d7293f3930	-0.20717896951686887

mlp.4.bias f8 [2]
0	0xbfd5ea004c23614d	-0.34240729747172766
1	0x3fdcb40d9a2361a0	0.4484895711189214
