project_code/technical_analysis/models/mlp_lr-0.001_batch_size-1_epochs-1000.pth (torch, 4645 bytes, 6 tensors)

mlp.0.weight f8 [10, 15]
000000 00 00 00 80 f0 81 b2 bf 00 00 00 40 cb 34 d0 bf
       -0.07229521870613098 -0.2532222867012024
000010 00 00 00 c0 3f 24 bc 3f 00 00 00 c0 32 06 cb bf
       0.10992811620235443 -0.2111266553401947
000020 00 00 00 80 5e 50 d0 bf 00 00 00 00 cc bb c1 bf
       -0.2549053430557251 -0.13854360580444336
000030 00 00 00 40 b1 47 c3 bf 00 00 00 60 21 ec c6 bf
       -0.15062537789344788 -0.17908112704753876
000040 00 00 00 20 78 42 83 3f 00 00 00 20 92 5a a6 3f
       0.00940412376075983 0.0436597503721714
000050 00 00 00 e0 bc 12 d0 bf 00 00 00 60 43 49 95 bf
       -0.2511436641216278 -0.02078728936612606
000060 00 00 00 60 8f e1 c4 bf 00 00 00 60 4f 44 7b bf
       -0.16313354671001434 -0.006656942423433065
000070 00 00 00 20 3c 4b c5 3f 53 32 fd 37 bb 9e 96 3f
       0.16635848581790924 0.022089886944103587
000080 fc 81 fd 74 db 80 c9 bf 86 f5 18 1e 2c b2 cb 3f
       -0.19924491131224886 0.21637488813022915
000090 d6 07 fd 1f 4a f7 d1 bf 09 89 32 26 d1 8c ce bf
       -0.2807183563601233 -0.2386723934660682
0000a0 56 c2 54 8f 7a 5d c0 bf db 39 32 6c b5 b9 b2 bf
       -0.12785274504269023 -0.07314618960865664
0000b0 1b c9 af e6 64 c2 b4 3f ac c7 e1 2a fe d7 d0 bf
       0.08109121925352662 -0.26318315684977267
0000c0 3d d5 ec 6d 1b 2f b9 3f 37 d2 f1 6a b4 d0 ca 3f
       0.09837504800528492 0.2094941637220857
0000d0 8c b8 1f c7 b0 82 c0 3f 1a 1d 4c 3b 60 62 9d 3f
       0.12898835871550707 0.0286955867950641
0000e0 2c 2b 38 0c 06 c4 a1 3f 69 6d 75 59 51 a9 c3 bf
       0.03469866656458573 -0.15360466831303235
0000f0 00 00 00 40 c3 c6 c3 bf 00 00 00 00 d4 66 c0 bf
       -0.1545032560825348 -0.12813806533813477
000100 00 00 00 20 c7 14 8d 3f 00 00 00 20 2f d4 b2 bf
       0.014199786819517612 -0.07355017215013504
000110 00 00 00 a0 69 15 cb bf 00 00 00 00 50 57 c8 3f
       -0.2115909606218338 0.19016456604003906
000120 00 00 00 40 be 45 c5 bf 00 00 00 80 d7 c1 c8 bf
       -0.16619089245796204 -0.1934155821800232
000130 00 00 00 a0 7f 27 ba bf 00 00 00 a0 e0 61 b7 bf
       -0.10216519981622696 -0.09133724123239517
000140 00 00 00 00 e1 03 c3 3f 00 00 00 80 28 19 aa 3f
       0.14855587482452393 0.05097319185733795
000150 00 00 00 80 5e 7c ce bf 00 00 00 20 60 20 c8 3f
       -0.23817044496536255 0.18848802149295807
000160 00 00 00 c0 bf a3 a0 3f 19 2c 12 7a 1b 0c e6 3f
       0.03249930590391159 0.6889779457282003
000170 25 19 47 24 df 8a e3 3f 6d 26 d7 cb 13 7f e0 3f
       0.6107021053838123 0.5155123692758942
000180 1a 48 23 5b 4b 64 01 40 ae ea 26 70 2e 17 f0 bf
       2.1739718551771263 -1.005659521192381
000190 c9 bd 8e 87 e7 5d 03 c0 79 dc e1 01 68 ac f2 3f
       -2.4208517637668803 1.16709137664091
0001a0 2f 50 e4 32 87 47 b0 bf 05 2f cb ee b4 6a 02 c0
       -0.06359143249966402 -2.3021029144055114
0001b0 f5 1d 84 78 80 0a e8 bf 74 d3 c8 11 ba 5f e2 3f
       -0.7512819627599457 0.5741854045250947
0001c0 03 e7 99 a5 4e 60 51 bf 40 90 95 50 e6 11 ad 3f
       -0.0010605590854581577 0.05677718862241976
0001d0 b3 36 36 d6 ac 7d c4 bf 37 76 ce d0 e0 f5 e3 bf
       -0.1600853010135573 -0.6237644270183357
0001e0 f8 85 5d 6e 01 8f c4 3f 82 d5 34 22 28 31 a2 3f
       0.16061418427402407 0.03553128640707383
0001f0 93 59 db 6d 3a 83 c9 bf 08 45 71 e2 14 21 a6 3f
       -0.1993172680292444 0.04322114242735081
000200 99 b4 cd 14 b7 c8 b5 3f e1 85 3e 21 5d 6b 8e bf
       0.0850939203061948 -0.014853217675240895
000210 5e 49 f5 86 b0 9e b4 bf dc 4f 26 a1 b7 23 d1 bf
       -0.08054641051174857 -0.26780501115103816
000220 dd ee bb 9b 9b 9e cf bf c9 de 43 70 d6 cd c0 3f
       -0.24702782730297815 0.13128166658110832
000230 97 0d 35 27 bf 2c a8 bf ab 31 59 aa af 0d c6 bf
       -0.04721639016727435 -0.1722926694659582
000240 d0 46 77 fb ca 1f ce 3f 4e b9 73 91 cd d8 a8 3f
       0.23534524229631026 0.048529075627686255
000250 d9 70 e7 6a ee 75 b1 3f 0b e3 b0 14 3e d9 da bf
       0.06820573911631146 -0.41950943012811653
000260 70 bd 2b 0a 33 69 eb bf bf 07 6a 4f 41 f6 ee bf
       -0.8565917204522702 -0.9675604392107217
000270 47 3e 46 8a e8 e2 06 40 7f 92 a7 69 14 4c f9 3f
       2.860795097607283 1.5810741545803066
000280 1b 6f 6b dc 83 a7 03 c0 02 dc 60 a5 56 c5 f8 3f
       -2.456794473675371 1.5481783351986
000290 45 fb 9f 07 0b 6c ef 3f 61 12 33 57 95 6d dc bf
       0.981938853161275 -0.4441884376103982
0002a0 59 44 11 c2 ab 1d d6 3f a7 0e 0f 4e fc cf e0 3f
       0.34556096984767276 0.5253888630472446
0002b0 69 1a 86 5a a5 ed e6 bf 6e 08 40 0b 6b 93 ce 3f
       -0.7165095108073959 0.2388738446171063
0002c0 2b 93 a1 e8 5c a6 b2 bf 7c d2 d4 50 15 13 ba bf
       -0.07285099677535516 -0.10185368750973994
0002d0 12 bd 84 be 46 1a 84 3f 22 18 bf 22 3a 0e 8e bf
       0.009815743149913323 -0.014675573525789135
0002e0 5c 65 ee 69 b8 3b ce bf a8 4c f7 49 9e 01 d1 bf
       -0.2361975209467272 -0.2657237741779661
0002f0 3c cc b4 7e eb 57 ce bf d8 97 bf 68 07 b5 b1 3f
       -0.2370581024821109 0.06916853244146581
000300 9f 65 32 8c e9 93 9e 3f 9a 89 cb 66 a0 90 c9 3f
       0.02986111562913651 0.199726152604012
000310 ca 3b 3e e0 fe 65 cf bf f8 30 a5 03 13 76 b1 bf
       -0.24530015897150143 -0.06820792044635826
000320 8b 65 51 3f 0e cd af 3f a1 1e 0c c3 fe f1 bd 3f
       0.062111325482599865 0.11697380315683371
000330 79 53 09 08 c7 d7 b3 3f 9c 37 86 8a f6 1c b8 3f
       0.07751125284387496 0.09419194108906342
000340 c2 58 56 2c ba 7a c4 bf ab 71 eb 69 c1 32 e2 bf
       -0.15999533810526684 -0.5686957424873545
000350 be 3c 60 85 cc 08 d9 bf 5d ef bf 60 54 bd c5 bf
       -0.3911620428561483 -0.1698403808985586
000360 02 c9 8f 88 41 f2 06 c0 c1 7e 02 d8 5a 0a ef 3f
       -2.8682890576247937 0.970014020818745
000370 62 dd 13 08 d1 fc 05 40 5c 65 f1 fb 74 49 e6 bf
       2.7484455710470437 -0.6964669152031706
000380 93 57 69 4d 79 d2 bf 3f 9e db 27 cd f4 5f 02 40
       0.12430532588891045 2.2968536403454456
000390 0a 9a 34 00 db 7c ef 3f f0 31 8a db 74 7a d4 3f
       0.9839911464703743 0.31997415008007035
0003a0 96 b7 10 02 90 06 ed 3f 6f 9c 62 74 dc de e1 bf
       0.9070510902727047 -0.558454730334132
0003b0 14 8d 54 6a b0 de b6 bf 5e 62 37 d7 6f 32 9e bf
       -0.08933546634630246 -0.029489276419413783
0003c0 17 aa 25 94 06 61 ec 3f 9e a8 bf 94 60 7f f0 3f
       0.886843957280976 1.0310979662413398
0003d0 56 0f 4f 3a 08 5b ee 3f 4b 95 66 71 0d 6d e0 bf
       0.9486123217434208 -0.5133120741708493
0003e0 fe 02 98 63 dd f1 03 c0 32 d8 bb cb bc a8 fc bf
       -2.493098047329453 -1.7911956747389124
0003f0 74 c4 02 67 7b 67 02 c0 cb 81 ad af ab dc d8 bf
       -2.300528340122179 -0.3884686675646917
000400 0a 30 fb 03 e3 ca d8 bf bc 2b 19 ad 5d c3 d4 3f
       -0.38738322628773914 0.3244241896069828
000410 5f 1f d2 5d c5 5b d5 3f c3 a9 60 ef 34 01 cc 3f
       0.3337262550562538 0.21878682793005852
000420 af 4f b0 86 7a 8b fe bf 74 fd 4e e6 d1 9a 02 c0
       -1.9090523968961681 -2.325595664296708
000430 29 54 48 81 d8 21 01 c0 e4 28 35 6b c2 d1 ee 3f
       -2.141526231784628 0.9631054014110103
000440 24 b4 d4 6b b8 e5 e3 3f bf 67 5e 7f 1c 67 95 3f
       0.6217920404502633 0.02090115096471101
000450 c8 16 70 91 2e 3a f2 3f e8 aa 8d b5 83 2b f1 bf
       1.1392045670667574 -1.0731236545495282
000460 df d4 06 ab f0 14 09 c0 b2 74 72 10 28 ca f0 3f
       -3.1352246629199807 1.0493546144928527
000470 ac ee 8c 1e 39 95 df 3f 93 66 4f dc f3 ae fe bf
       0.4934828565926448 -1.9177130323281844
000480 36 d5 db 59 01 f3 f4 3f a1 30 2e 9c 7c 20 f2 3f
       1.309327460299142 1.1329313374326733
000490 ad 40 25 3b 03 58 bc 3f b5 81 e1 66 cd d1 c7 3f
       0.11071796602232338 0.18609015964012846
0004a0 1d e0 58 86 ce af d0 bf 2e 50 9d b1 c0 34 d0 bf
       -0.2607303916915969 -0.2532197699085853

mlp.0.bias f8 [10]
000000 00 00 00 40 5c dd cf 3f e4 58 67 02 c6 c8 c4 bf
       0.24894288182258606 -0.16237712018364114
000010 00 00 00 a0 88 29 c2 bf 67 9c 7b 7a b4 bc e5 3f
       -0.14189250767230988 0.6792852775805728
000020 8c 86 53 04 32 4c cf bf f7 f0 c6 7b 5a 0f ed bf
       -0.24451279841655482 -0.9081242005845799
000030 1b 36 fd b4 20 f5 a0 bf ce fb 23 2c 8f e2 c8 bf
       -0.033120176404377775 -0.1944140401392062
000040 c9 12 d8 80 27 34 e6 3f 7f e6 c7 c3 a8 76 f0 3f
       0.6938664928898898 1.0289695403756978

mlp.2.weight f8 [10, 10]
000000 00 00 00 80 bc 00 c8 3f 00 00 00 00 48 77 cb bf
       0.18752247095108032 -0.21457767486572266
000010 00 00 00 e0 51 5b c4 3f 00 00 00 a0 6b 53 c6 bf
       0.15903685986995697 -0.1744207888841629
000020 00 00 00 60 ff d3 c7 3f 00 00 00 20 36 b5 b7 3f
       0.18615715205669403 0.09260881692171097
000030 00 00 00 00 c3 91 c1 3f 00 00 00 40 d7 4b c4 bf
       0.1372607946395874 -0.1585644781589508
000040 00 00 00 a0 19 fa d1 bf 00 00 00 80 3b 06 b8 3f
       -0.2808898985385895 0.09384509921073914
000050 00 00 00 c0 18 79 ae bf 12 89 cc 0a 62 11 d2 3f
       -0.059517644345760345 0.28231097273432326
000060 00 00 00 40 a4 8a 69 bf 0e 15 9c b0 1b ed da bf
       -0.0031178672797977924 -0.4207219338134828
000070 6a 6e 35 a3 f9 22 60 bf ff 5c e9 93 c5 44 e4 3f
       -0.001969802449520765 0.6333949936769442
000080 a6 93 e5 fe 58 06 cc 3f e5 f3 be 8d cf 41 ea 3f
       0.21894371458179512 0.8205335396265779
000090 cd 56 c7 af 36 c4 eb bf 59 bf 89 f9 64 99 0a c0
       -0.8677018578698267 -3.3248996253168284
0000a0 00 00 00 a0 cf c6 cd 3f 23 63 5a 4c be 0a b6 3f
       0.23262973129749298 0.08610143055046797
0000b0 00 00 00 40 4d d8 c3 bf fd 7d d3 3c 9c 94 85 bf
       -0.1550385057926178 -0.01053735790850307
0000c0 00 00 00 60 7c be c6 bf ef bf 32 27 0b 0e 0b 40
       -0.17768816649913788 3.381857210384616
0000d0 00 00 00 80 ae 6c c2 3f 33 fc 08 83 2f 00 dc 3f
       0.1439417004585266 0.43751132770916284
0000e0 67 49 e1 01 c1 1a 22 40 6a 38 ea 9b 30 c7 c8 bf
       9.05225377917368 -0.19357879269631734
0000f0 00 00 00 a0 03 6c c7 3f d4 34 a8 f2 99 7c c7 bf
       0.18298383057117462 -0.18349003170479838
000100 00 00 00 20 90 63 d3 bf 70 1b 9c f6 d3 05 eb bf
       -0.302951842546463 -0.8444614235494168
000110 80 ac 29 32 5c a6 cf bf 00 10 7d 93 ee 32 01 40
       -0.2472644085822573 2.149869110349755
000120 f9 06 e8 a1 96 8f c7 bf f7 be 77 68 1c 29 e0 3f
       -0.18406947045882996 0.5050184288392917
000130 a0 c1 dc dc b0 3e 12 40 6d bf 22 4c f3 cb e8 bf
       4.561221552823923 -0.7748962866807979
000140 00 00 00 c0 d7 7f c4 bf 88 57 eb 4a 1a 11 bb 3f
       -0.16015145182609558 0.10572971657833652
000150 00 00 00 20 28 2b c6 bf f1 60 d0 d5 11 8f f4 bf
       -0.17319203913211823 -1.2849291183575213
000160 ef 1d 5c c9 2f f8 d2 bf 60 ef 15 5c 01 ea 11 c0
       -0.2963981119541747 -4.478520811880884
000170 a1 9b 1a 8c b9 23 cc bf fd 5f e3 b5 9d 6d f5 3f
       -0.21984023419392165 1.3392617325789609
000180 0d ed d8 21 c8 28 05 c0 0c 20 bc 0d da 8e d0 bf
       -2.644912971909099 -0.25871898022933304
000190 00 00 00 60 40 b4 7a bf 34 d8 79 f3 e5 06 c2 bf
       -0.0065195574425160885 -0.14083551777338388
0001a0 00 00 00 e0 f3 23 cb bf bc 66 10 69 80 78 f0 3f
       -0.2120346873998642 1.0294193367066518
0001b0 17 e8 2a 05 d1 cf a2 3f 7f b2 15 8a 40 1b e1 bf
       0.03674176395493605 -0.5345766732185239
0001c0 68 9d b9 81 2d f2 cf bf de d3 22 8c 55 f5 fe bf
       -0.24957817873221733 -1.9348960374893447
0001d0 18 c0 3d b9 e4 ed 26 40 5f 30 6c f4 d4 fc ba 3f
       11.464635647571455 0.10542040793751671
0001e0 00 00 00 20 bd f5 cf 3f 00 00 00 e0 38 53 d3 3f
       0.2496868520975113 0.3019544780254364
0001f0 00 00 00 80 d4 01 a6 bf c0 4d 81 ed c5 35 f3 bf
       -0.042982712388038635 -1.2006282117407494
000200 00 00 00 e0 65 e8 c6 bf 66 52 ee ee ed d1 db 3f
       -0.17896722257137299 0.43468807538127974
000210 00 00 00 00 8c 43 d0 bf c1 87 d4 7b 8a 27 e1 3f
       -0.2541227340698242 0.5360767763670468
000220 ea 7f c5 7e c3 82 f7 3f 7f 8b 1b a8 8a 85 d1 3f
       1.4694247200022752 0.27377573410756634
000230 00 00 00 00 a9 9e cc 3f 00 00 00 a0 c9 61 c6 3f
       0.22359192371368408 0.17485924065113068
000240 00 00 00 a0 10 e4 c7 bf 00 00 00 40 06 d7 b4 bf
       -0.18664748966693878 -0.08140601217746735
000250 00 00 00 a0 fa 1d cd bf 00 00 00 80 b3 9e d1 bf
       -0.22747738659381866 -0.27531135082244873
000260 00 00 00 60 1a eb 7b bf 00 00 00 a0 a6 9b ab 3f
       -0.006816008593887091 0.0539218969643116
000270 00 00 00 e0 a4 2b d4 bf 00 00 00 80 cf 7d 9a 3f
       -0.31516382098197937 0.02587055414915085
000280 00 00 00 a0 d8 cb 83 bf 00 00 00 80 59 64 a2 bf
       -0.009666149504482746 -0.0359218567609787
000290 00 00 00 60 87 97 cc 3f e8 66 55 49 f3 fc bd 3f
       0.22337429225444794 0.11714096584674005
0002a0 00 00 00 40 7c 25 bb 3f fb cb 43 08 38 04 cf bf
       0.10604073107242584 -0.2423162498813268
0002b0 00 00 00 a0 56 ee ca bf 7f e9 95 f2 a2 41 d0 bf
       -0.21039851009845734 -0.25400613489150453
0002c0 23 53 ba 82 76 df d3 bf 4c a2 9a a3 76 08 d0 bf
       -0.3105140949858642 -0.25051656701046876
0002d0 00 00 00 60 24 1e c4 3f 00 00 00 c0 cc 95 c9 bf
       0.1571698635816574 -0.19988402724266052
0002e0 00 00 00 20 40 31 c5 3f 00 00 00 c0 cc 7c d1 bf
       0.16556550562381744 -0.27324217557907104
0002f0 00 00 00 00 5d 92 a0 bf 00 00 00 60 f9 25 d0 bf
       -0.032366663217544556 -0.25231775641441345
000300 00 00 00 60 d3 6c a8 3f 00 00 00 80 80 e4 cb bf
       0.0477052740752697 -0.21791082620620728
000310 00 00 00 80 81 33 c6 bf 00 00 00 40 63 68 b1 3f
       -0.17344683408737183 0.06799907982349396

mlp.2.bias f8 [10]
000000 00 00 00 c0 a4 c9 d2 bf 7e 38 43 95 f6 7a e4 bf
       -0.293557345867157 -0.64001015808914
000010 d1 ee 5e 87 9e 4d a6 3f a9 47 fe 9e 78 2c e0 bf
       0.04356093790508243 -0.5054286103570479
000020 08 d9 bd ac bd 0c d5 bf e0 62 98 81 c9 ca cb bf
       -0.3289026438645952 -0.2171260721959447
000030 95 cd e2 94 fd 36 f0 bf 00 00 00 00 ec 42 d2 bf
       -1.0134254279954338 -0.28533458709716797
000040 ee c4 07 41 db bd ab bf 00 00 00 60 ad 60 d2 bf
       -0.05418286484553812 -0.28715071082115173

mlp.4.weight f8 [2, 10]
000000 00 00 00 60 6d cd bf 3f 7e e2 f4 ce ef d5 11 40
       0.12422832101583481 4.458922609039858
000010 06 0e d6 c9 62 40 d8 bf 4d 2a a3 0f 51 4d f3 3f
       -0.3789298029953162 1.20637613399835
000020 49 a2 9b 78 ba 66 fe 3f 81 91 dd 1b 0a 28 19 c0
       1.900080176472459 -6.289101062200985
000030 a5 f6 56 9b 92 57 f8 3f 00 00 00 a0 ee e0 c4 3f
       1.5213800495106764 0.16311438381671906
000040 42 99 e0 f1 08 ea cc 3f 00 00 00 20 ec 5b cb 3f
       0.22589217958847924 0.21374274790287018
000050 00 00 00 c0 c6 8e a0 bf 69 e2 f4 b3 5b f9 11 c0
       -0.032339297235012054 -4.4935138815131745
000060 00 07 eb 5c 65 58 e6 3f 77 2a a3 cb 52 28 f3 bf
       0.6982905211263812 -1.197344584902252
000070 86 a2 9b d4 a2 3b f8 bf 3e 91 3d f7 61 a0 19 40
       -1.5145595841405863 6.406623709805272
000080 af e6 56 93 43 9f f6 bf 00 00 00 a0 48 ca c2 3f
       -1.4138828044364506 0.14679820835590363
000090 dd 9f 04 0f a2 b9 93 bf 00 00 00 a0 b2 2d 47 bf
       -0.019262821356420424 -0.0007073518936522305

mlp.4.bias f8 [2]
000000 1a 79 94 09 94 1b b9 bf a0 87 6b ee b9 f1 b0 bf
       -0.0980770610226255 -0.0661884505348369
